models/03_CNN_model.pth (torch, 34878 bytes, 10 tensors)

conv_block_1.0.weight f4 [10, 1, 3, 3]
0.17796254 -0.55140716 -0.5402729 -0.4949871 -0.5313063 -0.5520848 -0.14857194 -0.52241606
-0.87575775 -0.29414707 0.25038964 0.26464757 0.27382344 0.018854331 0.24530718 -0.028904837
0.052268974 -0.09119929 -0.29752073 -0.30734783 -0.5568045 -0.21618201 -0.17610529 -0.59323394
-0.22663984 0.14392881 0.092868395 -0.19560634 0.32483107 0.12771899 0.24088126 -0.06320195
0.3989844 0.10237378 -0.36840907 -0.039878733 -0.23624463 -0.37267923 -0.797833 0.04734745
-0.50568706 -0.8290658 0.13595799 0.45617604 0.49151263 0.084028326 -0.024290457 0.2551118
-0.10721404 0.42677304 0.09272925 -0.09780292 0.23993073 0.0019849984 -0.3177465 -0.1425948
-0.25882304 0.28934506 -0.28896502 -0.23702279 0.16521949 -0.15631539 -0.3069957 0.42117777
-0.04011333 -0.26505303 0.37274525 0.11275593 -0.70574784 0.14978504 0.19954836 -0.12110825
-0.33643794 0.023360934 0.21889387 0.03359376 0.031485043 0.29211876 0.45717466 0.28223115
-0.3359815 -0.2761094 0.34151727 -0.0035021498 -0.3244796 -0.033954624 0.31326512 0.08116437
-0.05207469 -0.06931527
00000000: d03b 363e 0529 0dbf 534f 0abf f36e fdbe
00000010: b103 08bf 6e55 0dbf 3e23 18be 0fbd 05bf
00000020: a931 60bf 729a 96be 1233 803e e37f 873e
00000030: 9632 8c3e 6674 9a3c ce31 7b3e d6c9 ecbc
00000040: fe17 563d b1c6 babd a354 98be b25c 9dbe
00000050: bd8a 0ebf d15e 5dbe f254 34be 2ede 17bf
00000060: 4614 68be 1362 133e c931 be3d 074d 48be
00000070: 4250 a63e c4c8 023e 94a9 763e 0670 81bd
00000080: af47 cc3e 58a9 d13d 1da0 bcbe e257 23bd
00000090: 1dea 71be d0cf bebe c93e 4cbf 66ef 413d
000000a0: b574 01bf a83d 54bf 9238 0b3e e88f e93e
000000b0: 8ba7 fb3e 0b17 ac3d c8fc c6bc 049e 823e
000000c0: 0993 dbbd ff81 da3e d5e8 bd3d e64c c8bd
000000d0: 67b0 753e bf16 023b abaf a2be 5f04 12be
000000e0: 7484 84be 0925 943e 39f3 93be 1ab6 72be
000000f0: 4c2f 293e 2411 20be 8a2e 9dbe 9da4 d73e
00000100: e04d 24bd 08b5 87be 77d8 be3e 95ec e63d
00000110: e4ab 34bf 4061 193e 6856 4c3e 9a07 f8bd
00000120: 9841 acbe 6e5f bf3c b725 603e 9c99 093d
00000130: 76f6 003d 9790 953e cc12 ea3e 9a80 903e
00000140: c405 acbe 365e 8dbe 5adb ae3e 5384 65bb
00000150: 3122 a6be 0114 0bbd 4964 a03e 8139 a63d
00000160: 454c 55bd 2af5 8dbd

conv_block_1.0.bias f4 [10]
0.28367573 0.07342239 0.118457325 0.07740643 0.07172421 -0.025391376 -0.3179778 0.12090796
0.06227133 -0.15204538
00000000: f23d 913e 7a5e 963d c199 f23d 4387 9e3d
00000010: 25e4 923d 9301 d0bc fccd a2be 989e f73d
00000020: 3910 7f3d c9b1 1bbe

conv_block_1.2.weight f4 [10, 10, 3, 3]
-0.07010404 -0.022599798 -0.04905588 -0.07482255 -0.1702788 -0.11318238 0.046815854 -0.11528022
0.004334768 0.13251542 -0.1601781 -0.0020394973 0.12231801 0.08394743 -0.038620993 -0.008050807
0.08773308 0.109920695 -0.07001018 -0.0014133991 -0.04256134 -0.09626661 -0.08939595 -0.12666453
-0.0057219923 -0.019949706 0.07670632 0.105962865 -0.05692509 0.03154536 0.061400544 0.07071948
-0.07829082 0.09524029 0.061134007 0.044450913 0.039511696 0.023861097 -0.10384014 -0.06965961
-0.107391946 -0.13433255 0.00034985295 -0.011064811 0.011160709 -0.039427415 -0.06972186 -0.012272397
0.05543925 0.18311846 0.14102565 -0.054004714 -0.05460482 0.1113839 0.050866112 -0.08112121
-0.09783373 -0.077384695 0.0045130644 -0.08827578 -0.039916888 -0.06490702 -0.046880092 -0.037954483
0.07378593 -0.052686904 -0.17957139 -0.011248463 -0.010431294 -0.026616486 -0.14184795 -0.038007043
0.033156093 -0.1536347 0.075579 0.022185823 -0.05871319 -0.04565448 -0.21687631 -0.10871716
-0.1453944 0.05769924 0.07919379 0.030542018 -0.06614607 0.01402871 -0.10612202 -0.10902616
-0.074649036 0.0858518 0.037347034 0.022297854 -0.1594348 0.32866317 0.26675245 0.13312353
0.205035 0.20749618 0.17054644 0.0027615698 -0.02115142 0.006447293 -0.1867748 -0.20947157
0.13259092 -0.095692 -0.16748847 -0.032377966 -0.0058591235 -0.04431224 -0.080225065 0.029296359
0.160765 -0.0437603 0.098220624 0.100055724 0.023309972 -0.030688504 -0.035030775 0.15416442
-0.051986802 -0.11913451 0.016329441 -0.15024036 -0.15775628 0.06781316 -0.09030519 -0.0896836
-0.022849886 -0.010657325 0.018227318 -0.0206273 0.1554213 0.040939163 -0.17861362 -0.10076471
-0.12786233 -0.059793178 -0.24153961 -0.20174345 0.03505797 -0.07936398 -0.21638358 0.0664641
0.013116738 0.0007545781 0.0022814053 -0.0788023 0.043977343 0.043936715 -0.0017656669 0.091841795
-0.0126180025 -0.00010166131 -0.13635325 -0.06610411 0.06606287 -0.025839161 -0.2099217 0.122353174
-0.05295649 -0.05088302 -0.027714698 -0.16109526 0.058970086 -0.08333991 -0.07724233 -0.06508427
0.0085567795 0.0557262 0.13472812 -0.0698667 -0.10111801 0.08986784 6.1284554e-05 -0.04441406
0.07343624 0.029668747 -0.04518691 -0.0008669101 -0.111327685 -0.09805918 -0.0074300584 -0.014141563
-0.0023737706 0.08665018 -0.06285301 -0.03001744 0.015285538 -0.031142227 -0.054637607 -0.05840715
0.21621455 -0.054382436 0.058444984 0.12581103 -0.040300723 -0.060391665 0.051178474 -0.018189479
0.04729849 -0.027049346 -0.009328241 -0.06465119 0.07139328 0.04996117 -0.02350239 0.052833095
0.020883339 -0.007190369 0.1711706 0.080183774 0.18744066 0.15053728 -0.13870607 -0.030631471
0.061418198 0.07562393 0.07444065 0.059959456 -0.066059776 -0.14793608 -0.09082772 -0.09378531
-0.0915604 0.049516495 -0.08742146 -0.115707345 0.15665783 -0.10756467 -0.12516947 0.17205967
-0.08464465 -0.1958689 -0.008633959 -0.0856632 0.09858683 -0.033722688 -0.02721639 -0.04665114
0.10453787 0.015556975 0.06020504 0.06891304 -0.021765683 -0.086647965 -0.050534714 -0.0033746774
0.01775025 0.1657569 0.22007057 -8.766762e-05 0.12022355 0.13941243 0.06321698 0.10670557
00000000: b592 8fbd 3623 b9bc d2ee 48bd 913c 99bd
00000010: 915d 2ebe 2acc e7bd fbc1 3f3d 0918 ecbd
00000020: ab0a 8e3b 1fb2 073e ba05 24be 16a9 05bb
00000030: dd81 fa3d a1ec ab3d 0c31 1ebd 88e7 03bc
00000040: 67ad b33d 1a1e e13d 7f61 8fbd ce41 b9ba
00000050: cd54 2ebd 6e27 c5bd 3915 b7bd 59b4 01be
00000060: 8d7f bbbb 916d a3bc 3418 9d3d 0f03 d93d
00000070: 482a 69bd b535 013d 237f 7b3d 60d5 903d
00000080: f056 a0bd 570d c33d a767 7a3d 2912 363d
00000090: 04d7 213d 5978 c33c 24aa d4bd b3a9 8ebd
000000a0: 4ff0 dbbd 798e 09be 786c b739 2e49 35bc
000000b0: 68db 363c a47e 21bd 56ca 8ebd 2a12 49bc
000000c0: 4414 633d 6883 3b3e 0769 103e 0c34 5dbd
000000d0: 4ea9 5fbd 3e1d e43d fc58 503d e022 a6bd
000000e0: 0d5d c8bd de7b 9ebd 54e2 933b efc9 b4bd
000000f0: e47f 23bd f9ed 84bd 5705 40bd 2976 1bbd
00000100: 141d 973d 39ce 57bd 90e1 37be 794b 38bc
00000110: 05e8 2abc d10a dabc 9740 11be 46ad 1bbd
00000120: afce 073d 6a52 1dbe 2ac9 9a3d 0bbf b53c
00000130: 3e7d 70bd 3100 3bbd d314 5ebe 1aa7 debd
00000140: 45e2 14be 0a56 6c3d 5b30 a23d 4133 fa3c
00000150: 9777 87bd add8 653c 8056 d9bd 1b49 dfbd
00000160: 98e1 98bd 12d3 af3d 34f9 183d fda9 b63c
00000170: e042 23be 8a46 a83e c793 883e 8951 083e
00000180: b2f4 513e e179 543e baa3 2e3e 74fb 343b
00000190: be45 adbc d043 d33b e541 3fbe b77f 56be
000001a0: eac5 073e 2bfa c3bd 1982 2bbe c29e 04bd
000001b0: e4fd bfbb c080 35bd 0a4d a4bd ebfe ef3c
000001c0: 959f 243e 003e 33bd e527 c93d 04ea cc3d
000001d0: 8ef4 be3c 7566 fbbc 6e7c 0fbd 47dd 1d3e
000001e0: 1df0 54bd cbfc f3bd 52c5 853c 9cd8 19be
000001f0: dd8a 21be a0e1 8a3d edf1 b8bd 09ac b7bd
00000200: af2f bbbc 109c 2ebc 7551 953c 95fa a8bc
00000210: c326 1f3e d3af 273d 7de6 36be ba5d cebd
00000220: 58ee 02be b1e9 74bd 2956 77be d695 4ebe
00000230: f298 0f3d 9589 a2bd a893 5dbe 541e 883d
00000240: 96e7 563c e1ce 453a a183 153b 1a63 a1bd
00000250: 9621 343d fcf6 333d f36d e7ba 8d17 bc3d
00000260: bdbb 4ebc 0033 d5b8 30a0 0bbe 9761 87bd
00000270: f84b 873d a6ac d3bc b7f5 56be 4d94 fa3d
00000280: e8e8 58bd b76a 50bd ef09 e3bc 28f6 24be
00000290: 9e8a 713d 1dae aabd 3a31 9ebd e74a 85bd
000002a0: bc31 0c3c 2841 643d 2bf6 093e 4616 8fbd
000002b0: f616 cfbd a10c b83d e585 8038 84eb 35bd
000002c0: bd65 963d df0b f33c e915 39bd 5a41 63ba
000002d0: c5ff e3bd 40d3 c8bd d977 f3bb 04b2 67bc
000002e0: 4391 1bbb a675 b13d 14b9 80bd 22e7 f5bc
000002f0: 3170 7a3c fc1d ffbc afcb 5fbd 563c 6fbd
00000300: 5967 5d3e 1ec0 5ebd 0264 6f3d 9bd4 003e
00000310: 5f12 25bd 405d 77bd 85a0 513d 1a02 95bc
00000320: 10bc 413d 9796 ddbc 7bd5 18bc d867 84bd
00000330: a436 923d 15a4 4c3d 1688 c0bc 8467 583d
00000340: 8913 ab3c 309d ebbb 5947 2f3e 6437 a43d
00000350: 72f0 3f3e 7226 1a3e f708 0ebe daee fabc
00000360: a691 7b3d b8e0 9a3d 5774 983d 0c98 753d
00000370: 594a 87bd 8e7c 17be e203 babd 8312 c0bd
00000380: 0584 bbbd cfd1 4a3d 060a b3bd f9f7 ecbd
00000390: e96a 203e de4a dcbd 6d2c 00be 6930 303e
000003a0: 2d5a adbd db91 48be 7375 0dbc 3070 afbd
000003b0: e4e7 c93d cd20 0abd e8f4 debc 4415 3fbd
000003c0: f317 d63d afe2 7e3c 8f99 763d 4822 8d3d
000003d0: f24d b2bc 7d74 b1bd 7dfd 4ebd b129 5dbb
000003e0: f968 913c 2dbc 293e 2e5a 613e 32da b7b8
000003f0: c437 f63d 22c2 0e3e e777 813d 7388 da3d

conv_block_1.2.bias f4 [10]
0.12850194 0.27840114 -0.06983169 0.21638449 -0.0691546 0.37073416 0.61053795 -0.16855685
-0.06747926 0.0318684
00000000: 0396 033e 988a 8e3e eb03 8fbd e593 5d3e
00000010: eda0 8dbd ded0 bd3e 374c 1c3f 2b9a 2cbe
00000020: 9132 8abd 7088 023d

conv_block_2.0.weight f4 [10, 10, 3, 3]
-0.03697574 0.20493706 -0.1301676 -0.07518985 0.34074053 0.015235089 -0.2563873 -0.16900568
0.12886155 -0.04505078 -0.13678092 -0.25839257 -0.026258873 -0.0666242 -0.15783219 0.07735394
0.37355277 0.07622988 0.020678543 -0.098826155 0.04116288 0.24051283 -0.2407621 -0.07951291
-0.028141053 -0.17268865 -0.07130138 -0.16648325 0.029847978 0.13507016 -0.13882089 -0.042654745
0.087222785 -0.046350326 -0.09176162 0.009288633 0.10657749 0.09837508 0.12440006 -0.09223012
-0.020593988 -0.04316769 0.09282141 0.0049399165 0.07648335 -0.005894108 0.120870054 0.1514588
0.23642011 -0.2781814 0.36897856 -0.046406142 -0.5516969 -0.19972585 -0.25707567 0.4450447
-0.18957274 -0.27226698 0.7016624 0.31569988 -1.0532849 0.0843222 0.095174745 -0.00214579
0.15034291 -0.02968874 -0.13300823 -0.081271924 -0.07611427 -0.09307803 0.056401435 -0.124701746
0.0021123227 -0.077578455 -0.025144551 0.11054501 -0.20462218 0.11554846 0.0048881024 -0.29582155
-0.013656451 0.03788645 -0.0013128471 0.030212792 -0.03685928 0.08356265 -0.066571675 -0.06587123
-0.05763035 0.035389636 -0.012419274 0.06632453 -0.23041977 -0.060274113 0.16449146 0.08824095
-0.10689233 -0.065225914 0.120650806 -0.107614115 -0.00062133896 -0.117654264 -0.14699869 0.0030913171
-0.21639657 -0.084762596 0.12936263 0.064428814 -0.038450476 -0.11950377 0.03924983 -0.075633064
0.023925954 -0.014373053 0.11202369 -0.0563903 -0.04880677 -0.16311415 -0.26763448 0.2481121
-0.2733903 -0.1937013 0.15925549 -0.009364027 -0.20213364 0.007164416 -0.0028438813 0.07288905
0.08694379 -0.0482028 0.1320365 -0.0039450657 0.11467107 0.111558445 0.06011589 -0.36899027
-0.27871215 0.46680865 -0.6871179 0.14723684 0.54314923 -0.0982274 -0.045286924 0.04792937
-0.29105943 0.3503105 -0.5507384 -0.30695382 0.9514376 0.0024464782 -0.05471553 0.34200555
-0.07321928 -0.26595676 -0.29388496 -0.033951845 -0.20813356 -0.19554767 0.12003754 0.00859004
-0.021739176 -0.16554478 0.09158673 -0.115241416 -0.15668204 -0.08662727 -0.14672704 0.022506066
-0.07848759 0.01433376 -0.051379103 -0.07699453 0.009574295 0.02794031 0.036121514 0.00568975
0.013990503 0.012359992 0.0400226 -0.081937894 0.019326903 -0.00929781 -0.009516745 0.06750914
-0.042557016 -0.16679338 -0.069991864 0.0021690333 -0.15437908 0.06206519 0.10308632 0.08806305
0.21626562 0.11319353 0.13357338 0.104061715 -0.17514709 0.09179993 -0.07889914 0.065158844
0.02469102 -0.13419135 -0.051221646 0.07007198 -0.16183478 -0.013149367 -0.046351396 0.004448733
0.035455216 0.03184281 -0.0959586 -0.09089388 0.048186768 0.022117872 -0.024404855 0.0031821365
-0.008310906 -0.027951326 -0.015288984 0.05497791 0.01448012 0.025502974 0.04042177 -0.0044229897
-0.03444525 0.018708955 -0.13953768 -0.12861294 0.010308731 -0.053797472 -0.087028764 -0.08074476
0.03445833 -0.14806804 -0.06191103 -0.12350306 -0.17906545 -0.031474024 -0.35287702 -0.21381298
0.15741715 -0.15119222 -0.16979466 -0.073586114 -0.09128076 -0.100967675 -0.02826698 -0.026974551
-0.024127053 -0.15709327 0.027172454 0.026822826 -0.089016914 -0.034884367 -0.0945126 -0.03876579
00000000: e073 17bd 05db 513e a84a 05be 23fd 99bd
00000010: 8b75 ae3e 989c 793c 3245 83be d30f 2dbe
00000020: 48f4 033e 2b87 38bd 4c10 0cbe 084c 84be
00000030: d91c d7bc 4572 88bd c39e 21be be6b 9e3d
00000040: 4f42 bf3e 691e 9c3d 0c66 a93c 5e65 cabd
00000050: 689a 283d ff48 763e 578a 76be aad7 a2bd
00000060: 1188 e6bc 4bd5 30be 7506 92bd 967a 2abe
00000070: bf83 f43c d54f 0a3e 1027 0ebe beb6 2ebd
00000080: dca1 b23d d7d9 3dbd 84ed bbbd 5a2f 183c
00000090: 4d45 da3d e078 c93d 75c5 fe3d 25e3 bcbd
000000a0: b9b4 a8bc 9bd0 30bd 2719 be3d 06df a13b
000000b0: 4da3 9c3d 5d23 c1bb b88a f73d 0418 1b3e
000000c0: 1d18 723e cb6d 8ebe c2ea bc3e 5e14 3ebd
000000d0: 023c 0dbf ef84 4cbe 6c9f 83be e6dc e33e
000000e0: 5b1f 42be 9466 8bbe 26a0 333f 6aa3 a13e
000000f0: 0ad2 86bf 1eb1 ac3d faea c23d 62a0 0cbb
00000100: 7ef3 193e cd35 f3bc 4f33 08be e571 a6bd
00000110: cce1 9bbd b29f bebd 3105 673d a163 ffbd
00000120: e56e 0a3b 74e1 9ebd f2fb cdbc 6c65 e23d
00000130: 7a88 51be aca4 ec3d 602c a03b ec75 97be
00000140: 4fbf 5fbc d22e 1b3d d713 acba d180 f73c
00000150: c2f9 16bd e522 ab3d bb56 88bd 7fe7 86bd
00000160: cd0d 6cbd b9f4 103d 367a 4bbc 28d5 873d
00000170: 29f3 6bbe fde1 76bd 7370 283e acb7 b43d
00000180: 5eea dabd 2a95 85bd c517 f73d ca64 dcbd
00000190: 5ae1 22ba b8f4 f0bd d386 16be b297 4a3b
000001a0: 1097 5dbe 0398 adbd a377 043e 41f3 833d
000001b0: 3f7e 1dbd 64be f4bd 6ec4 203d 82e5 9abd
000001c0: 5d00 c43c f47c 6bbc ad6c e53d 84f9 66bd
000001d0: 9ce9 47bd 6507 27be 6307 89be 1911 7e3e
000001e0: d0f9 8bbe a259 46be df13 233e 936b 19bc
000001f0: 1ffc 4ebe 7ac3 ea3b 6960 3abb db46 953d
00000200: 960f b23d 4d70 45bd 9434 073e 9c45 81bb
00000210: aad8 ea3d c178 e43d 143c 763d 4bec bcbe
00000220: 5cb3 8ebe 8b01 ef3e f5e6 2fbf 41c5 163e
00000230: d40b 0b3f 722b c9bd c87e 39bd 9651 443d
00000240: be05 95be e65b b33e 31fd 0cbf 0d29 9dbe
00000250: 6a91 733f 1855 203b 641d 60bd 5a1b af3e
00000260: fdf3 95bd 7c2b 88be 1778 96be 1711 0bbd
00000270: f720 55be a63d 48be 3ed6 f53d 3dbd 0c3c
00000280: 5b16 b2bc 9284 29be d391 bb3d b103 ecbd
00000290: 4271 20be a369 b1bd 9d3f 16be a45e b83c
000002a0: 1abe a0bd 26d8 6a3c e572 52bd 4faf 9dbd
000002b0: 81dd 1c3c 14e3 e43c 27f4 133d 1571 ba3b
000002c0: 6c38 653c 9081 4a3c bdee 233d 0ecf a7bd
000002d0: 7453 9e3c d755 18bc 1fec 1bbc 3b42 8a3d
000002e0: 4450 2ebd e2cb 2abe e557 8fbd 5726 0e3b
000002f0: 8d15 1ebe 1238 7e3d ec1e d33d 665a b43d
00000300: bc74 5d3e 02d2 e73d 76c7 083e 4f1e d53d
00000310: c259 33be 9a01 bc3d df95 a1bd 0072 853d
00000320: d244 ca3c 7569 09be cacd 51bd e681 8f3d
00000330: 04b8 25be 7170 57bc f6da 3dbd adc6 913b
00000340: 7d39 113d 9b6d 023d f185 c4bd 9226 babd
00000350: 7d5f 453d 8a30 b53c b1ec c7bc 648b 503b
00000360: 772a 08bc 2efa e4bc a67e 7abc 8430 613d
00000370: 063e 6d3c 9deb d03c 4c91 253d baee 90bb
00000380: 7616 0dbd 8643 993c f7e2 0ebe 1cb3 03be
00000390: f4e5 283c bd5a 5cbd 233c b2bd 825d a5bd
000003a0: 2e24 0d3d 269f 17be 6c96 7dbd 2cef fcbd
000003b0: ef5c 37be e8ea 00bd 4cac b4be caf1 5abe
000003c0: f631 213e 22d2 1abe a7de 2dbe 51b4 96bd
000003d0: 68f1 babd 24c8 cebd 2790 e7bc bcf9 dcbc
000003e0: 19a6 c5bc 0fdd 20be c498 de3c 8bbb db3c
000003f0: 804e b6bd e9e2 0ebd d28f c1bd e1c8 1ebd

conv_block_2.0.bias f4 [10]
0.4152994 0.48281735 0.6718411 0.30712396 0.42578968 -0.074615754 -0.0073090745 -0.07190965
0.004706028 0.06743379
00000000: 1fa2 d43e d633 f73e c7fd 2b3f 5a3f 9d3e
00000010: 1b01 da3e 25d0 98bd f680 efbb 5e45 93bd
00000020: 0635 9a3b ba1a 8a3d

conv_block_2.2.weight f4 [10, 10, 3, 3]
-0.13351983 0.0033796935 -0.11816599 -0.06834708 -0.014852711 0.017815728 0.022383735 -0.0066260058
-0.1550756 -0.08944782 -0.087365694 -0.0011870393 0.19114476 -0.11044628 -0.13596675 -0.0144706685
0.057852164 0.05593071 0.04513382 0.12279407 -0.10544592 -0.037717007 -0.02066415 0.05867545
-0.09349685 -0.067854024 0.0047842674 0.11871405 0.07472744 -0.019875592 0.028773589 0.049305215
-0.043833993 -0.0825165 -0.085357584 -0.0257632 -0.0042491625 0.019037843 -0.03396807 -0.018855505
0.08333359 -0.1089773 -0.08727045 -0.012396538 -0.10289949 0.06091308 0.032913037 -0.0016047069
0.07921311 0.072296925 0.059053782 0.018249193 -0.046241328 0.05630541 0.05711969 0.01728994
0.07196032 -0.102613114 0.04377508 0.035105992 -0.014428598 0.063462876 -0.034226727 -0.033716146
-0.06950108 -0.010674021 0.0034345095 -0.051499706 0.09644539 -0.0846972 -0.07346362 -0.07996086
0.09564036 0.05548541 0.09024521 -0.0016994827 -0.043027315 -0.10795804 -0.045285225 -0.062228594
0.054925483 0.048747238 -0.045699216 0.017970033 0.234375 0.16108075 0.045604277 -0.030302154
-0.089643896 0.08550532 -0.06438803 0.008660833 -0.18271329 -0.040905982 -0.0959863 -0.11260097
0.06500816 0.15508418 0.09548594 -0.01501473 -0.05116382 -0.09550842 0.11656796 -0.062456813
-0.15238442 0.0992183 -0.064968534 0.17634806 -0.041321345 -0.025839683 -0.05786093 0.1367109
-0.081367604 -0.029150127 0.048077848 -0.14119236 -0.10139612 0.01769907 0.007587843 0.006029171
-0.17268677 -0.07032623 0.20696984 -0.083124295 0.12485441 -0.1557327 -0.02027322 0.007929451
-0.12043228 -0.05236148 0.16905002 0.052865576 0.11493115 0.033594776 0.026861217 0.038850803
0.036970284 0.079697594 -0.018569969 0.08911548 0.032267377 -0.118502185 0.07300609 0.05246494
-0.040367898 -0.09327945 0.012374546 -0.022718022 0.0052726283 0.087166086 -0.07894115 -0.11548013
-0.034914427 0.06610802 -0.079359144 -0.05297574 0.000928745 -0.1106722 -0.117482014 -0.11176911
0.0012774009 0.01429472 0.020016223 0.0910862 0.10292604 -0.031807188 0.04252777 0.02421427
-0.09999479 0.007687438 0.049583457 -0.105867915 0.024261925 0.06799408 0.075955994 0.05732128
0.011608301 0.0209647 0.056661967 0.17385411 -0.36159968 -0.30697438 -0.25773492 -0.048740983
0.2079977 -0.32577148 0.07964429 0.1452213 -0.3793508 -0.35682863 -0.18946685 -0.5796591
0.24326085 0.2767577 -0.3367295 0.4701899 0.15636112 0.06411671 0.24814668 0.2683736
0.33258125 -0.17451522 -0.32342666 -0.010748953 -0.15612389 -0.18169533 0.0039889705 0.052480344
0.1331226 0.12312156 -0.110305205 -0.27150238 0.17737886 -0.1778391 -0.1661823 0.2151627
0.18296912 -0.08819777 -0.045755286 -0.060713876 -0.24165116 -0.187048 -0.12802017 -0.23082379
-0.068522796 0.08724825 -0.09642539 -0.057463534 0.054320157 0.01456381 -0.030248156 -0.010452867
0.09025659 0.070748374 0.0664653 -0.07163877 -0.027922623 0.03812824 0.0090733515 0.023120662
-0.025218157 0.109215155 -0.012028257 -0.26403913 -0.28132218 -0.3076484 -0.058138054 0.3076169
-0.13314581 -0.015311615 0.204732 -0.09529787 0.04609402 -0.04784235 -0.09094241 -0.09567007
00000000: 6cb9 08be d97d 5d3b 0301 f2bd 8ef9 8bbd
00000010: c958 73bc 4af2 913c 185e b73c f71e d9bb
00000020: 23cc 1ebe 6b30 b7bd c9ec b2bd 6e96 9bba
00000030: 74bb 433e a931 e2bd de3a 0bbe 6216 6dbc
00000040: 64f6 6c3d 9a17 653d 3ede 383d 757b fb3d
00000050: 08f4 d7bd 267d 1abd dd47 a9bc ab55 703d
00000060: 477b bfbd 0df7 8abd 58c5 9c3b 5a20 f33d
00000070: b30a 993d 23d2 a2bc 97b6 eb3c 44f4 493d
00000080: 468b 33bd 69fe a8bd f5cf aebd 590d d3bc
00000090: 8f3c 8bbb 40f5 9b3c 1a22 0bbd dc76 9abc
000000a0: cdaa aa3d 7e2f dfbd daba b2bd d91a 4bbc
000000b0: f8bc d2bd fe7f 793d d2cf 063d 0755 d2ba
000000c0: 7c3a a23d 6910 943d 61e2 713d 557f 953c
000000d0: 8c67 3dbd 80a0 663d 56f6 693d a2a3 8d3c
000000e0: ef5f 933d d326 d2bd 804d 333d 4dcb 0f3d
000000f0: ed65 6cbc d3f8 813d 5331 0cbd f119 0abd
00000100: 9556 8ebd 17e2 2ebc 8215 613b 5bf1 52bd
00000110: 2985 c53d ba75 adbd 1874 96bd 85c2 a3bd
00000120: 18df c33d ab44 633d 7bd2 b83d 2dc1 deba
00000130: 693d 30bd 1b19 ddbd 007d 39bd 69e3 7ebd
00000140: 8bf9 603d 2fab 473d 1a2f 3bbd e435 933c
00000150: 0000 703e 5af2 243e 8dcb 3a3d 393c f8bc
00000160: 3897 b7bd 6a1d af3d dfdd 83bd 2be6 0d3c
00000170: 3119 3bbe 088d 27bd 7794 c4bd 569b e6bd
00000180: 0023 853d 63ce 1e3e 228e c33d 5800 76bc
00000190: 2791 51bd eb99 c3bd 2fbb ee3d b7d2 7fbd
000001a0: a90a 1cbe f732 cb3d 390e 85bd 9694 343e
000001b0: 9240 29bd bead d3bc 95ff 6cbd f1fd 0b3e
000001c0: 0fa4 a6bd 3fcc eebc 47ed 443d bb94 10be
000001d0: c5a8 cfbd a4fd 903c 71a3 f83b 5a90 c53b
000001e0: cdd4 30be 3307 90bd e7ef 533e 123d aabd
000001f0: abb3 ff3d 6578 1fbe 0614 a6bc 87ea 013c
00000200: 33a5 f6bd fe78 56bd 731b 2d3e 9389 583d
00000210: 0661 eb3d ad9a 093d 0e0c dc3c 0522 1f3d
00000220: 276e 173d 7e38 a33d 0c20 98bc 2d82 b63d
00000230: cc2a 043d 46b1 f2bd 3884 953d 7ae5 563d
00000240: cf58 25bd 4c09 bfbd 9cbe 4a3c 251b babc
00000250: 03c6 ac3b 2284 b23d e6ab a1bd d980 ecbd
00000260: 6e02 0fbd a463 873d 0c87 a2bd 17fd 58bd
00000270: 0677 733a 1ba8 e2bd 699a f0bd 34e7 e4bd
00000280: 766e a73a 6734 6a3c 10f9 a33c 678b ba3d
00000290: e3ca d23d 4148 02bd 9931 2e3d 015d c63c
000002a0: 12ca ccbd e7e6 fb3b 0618 4b3d 47d1 d8bd
000002b0: f2c0 c63c 7b40 8b3d d18e 9b3d b8c9 6a3d
000002c0: be30 3e3c 2abe ab3c 6116 683d d006 323e
000002d0: 9823 b9be bf2b 9dbe d5f5 83be a0a4 47bd
000002e0: 59fd 543e 85cb a6be 8c1c a33d e4b4 143e
000002f0: 453a c2be 3eb2 b6be 9903 42be 8a64 14bf
00000300: 5f19 793e 2fb3 8d3e cf67 acbe bbbc f03e
00000310: 211d 203e 9f4f 833d 2a1a 7e3e 4468 893e
00000320: 1748 aa3e 1eb4 32be 2e98 a5be 601c 30bc
00000330: f1de 1fbe 570e 3abe e9b5 823b a1f5 563d
00000340: 4a51 083e 2827 fc3d b2e7 e1bd 5c02 8bbe
00000350: cea2 353e 741b 36be b12b 2abe 9c53 5c3e
00000360: 425c 3b3e 08a1 b4bd e569 3bbd 1daf 78bd
00000370: 6773 77be 8389 3fbe b817 03be 125d 6cbe
00000380: ae55 8cbd 36af b23d ad7a c5bd e25e 6bbd
00000390: d07e 5e3d 0c9d 6e3c fbca f7bc 8042 2bbc
000003a0: 72d8 b83d 86e4 903d f61e 883d 59b7 92bd
000003b0: fcbd e4bc 5b2c 1c3d 65a8 143c 8b67 bd3c
000003c0: 4f96 cebc 32ac df3d 2b12 45bc 2330 87be
000003d0: 7609 90be 1784 9dbe 2b22 6ebd f67f 9d3e
000003e0: 6057 08be 91dd 7abc 44a5 513e 882b c3bd
000003f0: 15cd 3c3d 57f6 43bd 0440 babd abee c3bd

conv_block_2.2.bias f4 [10]
-0.12646629 -0.14263254 0.1112155 -0.0006359571 0.044176087 0.051781558 0.66434693 0.21953511
0.05062435 -0.15156095
00000000: 6180 01be 440e 12be f4c4 e33d 5cb6 26ba
00000010: fcf1 343d e618 543d a412 2a3f d0cd 603e
00000020: 7a5b 4f3d cb32 1bbe

classifier.1.weight f4 [10, 490]
-0.022569409 0.024049677 0.0014443774 -0.029634483 -0.034901865 0.050247826 -0.038694657 0.009255663
0.02664093 -0.025339747 -0.0026578705 -0.026954547 -0.012570185 0.028454315 0.024594473 -0.031935893
0.026080582 -0.06062753 -0.06026695 -0.05214645 -0.033321463 -0.045363717 -0.072230525 0.008795165
-0.0015312076 -0.04117189 -0.049281903 -0.009783196 -0.013875935 -0.10186448 -0.020885328 -0.0133598
-0.06535053 -0.09281441 -0.057537712 -0.051917747 -0.04465546 -0.019504063 -0.06170087 -0.020406565
-0.042426623 -0.02615688 -0.03938573 0.019275226 0.023638336 -0.03180859 0.027089054 -0.019983694
-0.045830682 0.07545106 -0.15047964 0.027301395 0.0007951396 0.11559985 0.008367518 -0.01528373
-0.042723555 0.07665879 0.08646081 0.03607557 0.049972348 -0.024088131 -0.01469356 -0.00071943033
0.018297026 0.009152483 -0.009152233 -0.011898219 0.0049684383 -0.052926622 0.04398706 -0.01545998
-0.011770344 0.04201439 0.017737214 0.0050153635 0.04069056 -0.045746814 0.01815483 0.017795045
0.0051397835 -0.043344203 -0.006588559 0.016127033 -0.05852088 -0.011786605 -0.030540472 0.0014603289
-0.052515358 -0.036265984 -0.017369984 -0.008553697 -0.036825508 0.0085881725 0.012967875 -0.038117994
-0.025936838 -0.009015557 0.032778516 -0.072201915 0.28067243 -0.09374249 0.20910528 0.1905224
0.14928308 0.11575353 0.28955215 0.25307643 -0.1493845 -0.20897771 0.17318021 0.19421555
0.09725542 0.13234456 0.105482735 -0.0431205 0.31148475 -0.06392623 -0.18946745 -0.09628503
0.07043619 -0.029429853 -0.11312597 0.06204869 -0.14531666 -0.14383335 -0.016771313 0.06127
-0.14687458 -0.072025165 0.11390501 -0.046988003 -0.14846367 0.007477801 -0.13522097 -0.19300865
-0.0055150925 0.1517347 0.058166318 -0.104814924 -0.034552407 -0.05658079 -0.1569039 0.039166067
0.06825331 0.2879613 -0.15353487 0.030558763 0.2267656 -0.036897693 -0.20152874 -0.048310798
-0.028518943 -0.06549284 -0.009346887 -0.07534906 -0.044568803 -0.086184256 -0.14425562 -0.058604557
-0.009843434 0.24741147 0.14954068 -0.08468902 0.16819954 0.037919216 0.26717058 -0.028353255
0.18314466 0.020529425 -0.08313891 0.04589171 -0.0025061925 0.21693946 0.016869325 0.08065169
-0.15344945 -0.0317494 -0.02394745 0.03971264 0.23577012 -0.05923657 -0.18698987 -0.025773712
-0.06714023 0.028786208 0.00016206931 0.22252719 -0.050915048 -0.115054905 0.26649052 -0.19319493
-0.19917881 0.03101113 -0.101247184 0.0013411437 0.014067905 -0.0127728 -0.061450575 0.23601326
0.19644624 0.4773243 0.016187562 0.07804105 -0.025879541 -0.04939442 0.13525923 0.2844063
0.34731394 0.0037242924 0.12712298 -0.10725236 -0.06670193 0.13900332 0.2052862 0.08490317
-0.03823397 0.049903132 -0.23173343 -0.15265587 0.06491591 0.11766092 0.0382023 -0.015753947
0.034786846 0.03381189 -0.06046254 0.0069251624 0.050780907 -0.073794864 -0.01936896 -0.06326462
0.0826666 -0.06733357 0.06830388 -0.0254545 -0.011967454 0.009779375 -0.019270156 0.072474785
-0.080414414 -0.004125806 -0.10295091 -0.0009728934 -0.003166834 -0.0055522677 0.02219487 0.01251541
-0.044390444 0.010516709 0.012305647 -0.044208128 0.006930672 -0.068149045 0.17479514 0.12007035
00000000: 7be3 b8bc d403 c53c 4351 bd3a 04c4 f2bc
00000010: 42f5 0ebd aad0 4d3d 4a7e 1ebd 10a5 173c
00000020: 143e da3c 4d95 cfbc ab2f 2ebb c8cf dcbc
00000030: 2df3 4dbc 0619 e93c 597a c93c 36cf 02bd
00000040: f2a6 d53c 9354 78bd 7ada 76bd 8497 55bd
00000050: 167c 08bd 4ecf 39bd 99ed 93bd 9919 103c
00000060: cdb2 c8ba dba3 28bd d2db 49bd b349 20bc
00000070: e457 63bc 539e d0bd b517 abbc 10e3 5abc
00000080: 80d6 85bd 7b15 bebd aaac 6bbd b4a7 54bd
00000090: a5e8 36bd fcc6 9fbc 0dba 7cbd ab2b a7bc
000000a0: 8ac7 2dbd f446 d6bc ee52 21bd 14e7 9d3c
000000b0: 2fa5 c13c b949 02bd dde9 dd3c d8b4 a3bc
000000c0: f4b8 3bbd 1686 9a3d 5617 1abe 2da7 df3c
000000d0: ea70 503a 9dbf ec3d ea17 093c 9c68 7abc
000000e0: e5fe 2ebd 49ff 9c3d 5d12 b13d fac3 133d
000000f0: ceaf 4c3d 7954 c5bc 42bd 70bc 2798 3cba
00000100: a5e3 953c 4cf4 153c 3ff3 15bc bff0 42bc
00000110: 48ce a23b 96c9 58bd c72b 343d db4b 7dbc
00000120: 67d8 40bc 4817 2c3d a24d 913c eb57 a43b
00000130: 25ab 263d 0361 3bbd 70b9 943c eac6 913c
00000140: a16b a83b b189 31bd d7e4 d7bb d71c 843c
00000150: 97b3 6fbd 9b1c 41bc 0330 fabc 8268 bf3a
00000160: 581a 57bd a48b 14bd 7f4b 8ebc ce24 0cbc
00000170: 58d6 16bd 68b5 0c3c 3677 543c 9d21 1cbd
00000180: 7e79 d4bc fdb5 13bc c442 063d 99de 93bd
00000190: 4cb4 8f3e 10fc bfbd b21f 563e 4e18 433e
000001a0: aadd 183e 3010 ed3d 2e40 943e 3c93 813e
000001b0: 40f8 18be 41fe 55be 2756 313e 71e0 463e
000001c0: da2d c73d 5585 073e 5507 d83d 1f9f 30bd
000001d0: ee7a 9f3e c1eb 82bd c103 42be 1631 c5bd
000001e0: d940 903d e016 f1bc 97ae e7bd c426 7e3d
000001f0: e4cd 14be 0d49 13be fe63 89bc 40f6 7a3d
00000200: 4a66 16be ee81 93bd 0847 e93d 7e76 40bd
00000210: dc06 18be 5708 f53b 5e77 0abe 0fa4 45be
00000220: f3b7 b4bb 5760 1b3e ce3f 6e3d 35a9 d6bd
00000230: d386 0dbd 42c1 67bd 6aab 20be 996c 203d
00000240: 64c8 8b3d aa6f 933e 3f38 1dbe 5f56 fa3c
00000250: 3e35 683e 0922 17bd 8d5d 4ebe 8be1 45bd
00000260: 8fa0 e9bc 1c21 86bd af23 19bc 9c50 9abd
00000270: c78d 36bd 5f81 b0bd bfb7 13be 550b 70bd
00000280: 5b46 21bc 6f59 7d3e 3121 193e 7071 adbd
00000290: 803c 2c3e 2e51 1b3d 95ca 883e 1645 e8bc
000002a0: 468a 3b3e 532d a83c bc44 aabd f2f8 3b3d
000002b0: ef3e 24bb 6125 5e3e 8a31 8a3c b72c a53d
000002c0: da21 1dbe a90b 02bd 712d c4bc b9a9 223d
000002d0: b96d 713e 0ca2 72bd 467a 3fbe 6423 d3bc
000002e0: d180 89bd 0ed1 eb3c 26f1 2939 2bde 633e
000002f0: 4c8c 50bd e8a1 ebbd 7271 883e e4d4 45be
00000300: 88f5 4bbe 0e0b fe3c af5a cfbd 51c9 af3a
00000310: 127d 663c 0245 51bc 99b3 7bbd 76ad 713e
00000320: 3429 493e da63 f43e c79b 843c fcd3 9f3d
00000330: 5501 d4bc ce51 4abd 6581 0a3e b49d 913e
00000340: 22d3 b13e 4213 743b 872c 023e 20a7 dbbd
00000350: 059b 88bd e356 0e3e 8c36 523e b7e1 ad3d
00000360: 399b 1cbd 3a67 4c3d 874b 6dbe d251 1cbe
00000370: a2f2 843d 35f8 f03d 047a 1c3d 6c0e 81bc
00000380: a77c 0e3d 567e 0a3d 91a7 77bd 79ec e23b
00000390: a4ff 4f3d c321 97bd a7ab 9ebc e290 81bd
000003a0: 1b4d a93d 2fe6 89bd e8e2 8b3d f585 d0bc
000003b0: 2413 44bc ac39 203c 72dc 9dbc a96d 943d
000003c0: 50b0 a4bd c531 87bb edd7 d2bd c509 7fba
000003d0: a88a 4fbb ccef b5bb 04d2 b53c 6f0d 4d3c
000003e0: c1d2 35bd 464e 2c3c a09d 493c 9513 35bd
000003f0: b11a e33b ba91 8bbd 7ffd 323e 72e7 f53d

classifier.1.bias f4 [10]
0.107423835 -0.16229188 0.22661294 0.07268297 -0.26072225 -0.046295438 0.004993993 0.05401921
0.053670388 -0.09726548
00000000: 0701 dc3d d82f 26be 390d 683e cfda 943d
00000010: 637d 85be 49a0 3dbd a6a4 a33b 3f43 5d3d
00000020: 7bd5 5b3d 2033 c7bd
